checkpoint.pt (torch, 679147 bytes, 62 tensors)

block1.0.weight f4 [32, 1, 5, 5]
0	0x3c6d6283	0.014488819
1	0x3dcc8946	0.0998712
2	0x3c33bd54	0.010970432
3	0xbc192b81	-0.009348751
4	0xbd4e6099	-0.05038509
5	0x3d7672fc	0.06016825
6	0xbd639838	-0.05556509
7	0xbde90d21	-0.11379457
8	0xbd0f983a	-0.035057284
9	0xbb8bac4e	-0.0042624837
10	0x3cff3735	0.031154254
11	0xbd05b208	-0.032640487
12	0xbda17fb7	-0.07885688
13	0xbd0dc571	-0.034612123
14	0xbcef6f4f	-0.02922788
15	0x3db75219	0.08951206
16	0x3d13cbc4	0.036082998
17	0xbd2d61c9	-0.042329583
18	0xbd42630b	-0.047457736
19	0xbc165e5d	-0.009177771
20	0xbe39dea1	-0.18151332
21	0x3d084dab	0.033277195
22	0xbdcfbe8b	-0.10143765
23	0x3cd82948	0.026386872
24	0xbb7651df	-0.003758542
25	0x3d5dc302	0.054141052
26	0x3dd1042f	0.10205876
27	0xbcf9f3d4	-0.030511774
28	0x3cc9f256	0.024651688
29	0x3d376fb5	0.044784267
30	0x3ca15150	0.019692093
31	0x3cb027ef	0.021503417
32	0xbd253bea	-0.04034034
33	0xbc96ce6a	-0.018408973
34	0xbc1891bf	-0.009312092
35	0x3d6e2f78	0.05815074
36	0xba85454b	-0.0010167746
37	0xbc342334	-0.010994721
38	0xbceb4279	-0.02871822
39	0x3c8fe547	0.017565383
40	0xbde44bad	-0.111472465
41	0x3c44b42d	0.012005848
42	0x3d0f137f	0.034930702
43	0x3c5bd483	0.013417366
44	0xbbe43722	-0.00696458
45	0x3c840ae0	0.016118467
46	0x3d62a2cf	0.055331048
47	0xbb925929	-0.004466195
48	0x3da27250	0.0793196
49	0xbce612d4	-0.02808515
50	0x3dcdcd2a	0.100488976
51	0x3d944199	0.07239074
52	0xbd23e5ce	-0.04001408
53	0xbb30cf4a	-0.0026979023
54	0x3c3d79b6	0.011564663
55	0xbc897854	-0.01678101
56	0xbd968e01	-0.07351304
57	0xbdc14cfd	-0.094385125
58	0xbb74a8f3	-0.0037332147
59	0x39976a0c	0.00028879975
60	0xbd932134	-0.07184067
61	0x3d837f19	0.06420726
62	0x3de35bcb	0.111014925
63	0x3c0efc13	0.008727091
64	0xbd3232a5	-0.04350533
65	0x3d8fa444	0.07013753
66	0x3c97e5f4	0.018542267
67	0x3c577dce	0.013152553
68	0xbd8d1343	-0.068884395
69	0x39d0a424	0.00039795146
70	0xbda3d87c	-0.080002755
71	0xbcb286fe	-0.021792885
72	0x3cd1b675	0.025599698
73	0x3c2c5cbc	0.0105201565
74	0xbcd5c689	-0.026095646
75	0xbbda4295	-0.006660769
76	0x3cd5cfbe	0.026100036
77	0x3b9bf00c	0.0047588404
78	0xbdbe9793	-0.09306254
79	0xbcaffbcb	-0.021482369
80	0x3a862a2c	0.0010235957
81	0x3c285ab6	0.010275533
82	0xbccfd846	-0.025371682
83	0xbd9755d0	-0.07389414
84	0x3c9faf09	0.019492643
85	0xbc8e356c	-0.017359458
86	0x3dacf0db	0.08444377
87	0x3d13910d	0.036027003
88	0x3d741c98	0.05959758
89	0x3d1dfa28	0.038568646
90	0x3d52719e	0.051377885
91	0xbd132fb3	-0.03593416
92	0xbcef2522	-0.029192511
93	0xbc0ea7c7	-0.008706993
94	0x3daf7735	0.08567659
95	0xbc152f0b	-0.009105454
96	0xbd489fb1	-0.04898042
97	0xbcb5f50e	-0.022211578
98	0x3d173ba9	0.03692213
99	0xbd4bb240	-0.04973054
100	0x3d347d11	0.044064585
101	0xbd275e60	-0.040861487
102	0xbcc06911	-0.0234876
103	0xbdc7fbc9	-0.09764821
104	0x3d8a3efa	0.06750293
105	0x3d343f79	0.044005845
106	0x3d610a3d	0.054941405
107	0xbda311e2	-0.07962395
108	0x3d950d7a	0.07277961
109	0xbd06eed1	-0.032942597
110	0x3bfb962c	0.007677814
111	0x3d737362	0.05943621
112	0x3dbf7417	0.09348314
113	0x3c9d7be2	0.019224111
114	0x3d14952c	0.036275074
115	0x3bdf42b0	0.0068133697
116	0xbce3979f	-0.02778226
117	0x3c99cf03	0.018775469
118	0x3d46cd2c	0.04853551
119	0x3d23d726	0.040000103
120	0xbd68ff54	-0.056884125
121	0x3c15c172	0.009140359
122	0x3c514fb0	0.012775347
123	0xbbca0887	-0.0061655673
124	0xbc2bd1ae	-0.010487003
125	0xbd8b41f1	-0.06799687
126	0xbd549207	-0.051897075
127	0x3d2646e7	0.04059496
128	0xbce7572f	-0.028239815
129	0x3ce6bbe7	0.02816577
130	0x3d90f705	0.07078365
131	0xbd483e17	-0.04888734
132	0xbbf88086	-0.0075836806
133	0x3cbd07f0	0.023075074
134	0xbc3ccbe3	-0.01152322
135	0xbd679cac	-0.0565459
136	0x3d44ce4c	0.048048303
137	0x3b8f7921	0.0043784534
138	0x3cb1086a	0.021610457
139	0x3ced6338	0.028977975
140	0xbd479835	-0.04872914
141	0x3c09fb42	0.008421721
142	0x3d12abef	0.0358085
143	0xbcbf69b8	-0.02336584
144	0x3cc2b7d5	0.023769299
145	0x3d2570a1	0.040390614
146	0x3c8ffb21	0.017575802
147	0xba9534fd	-0.001138359
148	0x3dc57974	0.09642306
149	0x3dd6a3e3	0.10480478
150	0x3da331b5	0.07968465
151	0xba2829ea	-0.0006414937
152	0x3d939ea0	0.0720799
153	0xbd150e1d	-0.036390413
154	0xbd09b042	-0.03361536
155	0xbcaee68b	-0.021350166
156	0xbc6f425b	-0.014603223
157	0x3d28a8a0	0.04117644
158	0x3dff500e	0.12466441
159	0xbdb68438	-0.089119375
160	0xbb0bc38d	-0.0021326274
161	0x3d8766a6	0.066113755
162	0xbdc225da	-0.09479876
163	0xbb19081c	-0.002335078
164	0x3d46b4dc	0.048512325
165	0x3d83acaf	0.06429421
166	0x3d2082f0	0.03918737
167	0x3cd015f8	0.0254011
168	0x3cde0319	0.027101086
169	0xbce1cd19	-0.027563618
170	0x3d7f66e3	0.06235398
171	0xbb096d0a	-0.0020969533
172	0x3dd2370e	0.10264407
173	0x3ddc266f	0.10749518
174	0xbe2caf65	-0.16863783
175	0xbdccf374	-0.100073725
176	0x3ba7a8d6	0.0051165624
177	0xbd64b7e6	-0.05583944
178	0xbc019ddd	-0.007911173
179	0x3c64a03d	0.013954219
180	0x3c4fdd0d	0.01268698
181	0x3c2605ac	0.010133188
182	0x3cf8f3e0	0.030389726
183	0xbd3f01fa	-0.046632744
184	0x3d03590e	0.03206735
185	0xbc4598a5	-0.012060319
186	0xbd23674f	-0.039893445
187	0x3e17153e	0.14754197
188	0x3c72b449	0.014813491
189	0x3ab7ba52	0.001401732
190	0xbdd2c597	-0.102915935
191	0xbcfc5ea7	-0.030806853
192	0xbc8cfdc0	-0.017210841
193	0xbd3e4a5d	-0.046457637
194	0xbcfeab99	-0.031087684
195	0x3d8ad941	0.06779719
196	0x3d8184d7	0.06324165
197	0x3bb1f68d	0.0054310025
198	0xbbb19a0b	-0.0054199747
199	0xb9caa756	-0.00038653117
200	0x3cd47051	0.025932463
201	0xbc47a2c6	-0.012184804
202	0x3d7dc9ed	0.06196015
203	0x3c2afacd	0.010435772
204	0x3d657400	0.05601883
205	0xbd5fa9fb	-0.054605465
206	0x3c87b529	0.016565876
207	0x3d45f748	0.04833153
208	0x3d15be8e	0.03655868
209	0xbcaefe30	-0.02136144
210	0x3d173fe6	0.036926173
211	0xbc978dde	-0.018500265
212	0x3db6dc7c	0.08928773
213	0x3bd0d8d6	0.006373505
214	0x3cc7c8e8	0.024387792
215	0x3dc25f66	0.09490852
216	0x3bd1f9ce	0.006407953
217	0xbd250e69	-0.040296946
218	0x3cf84b58	0.030309364
219	0x3d4bf9dd	0.049798835
220	0xbc692d0b	-0.0142319305
221	0x3c46b4b9	0.012128049
222	0x3ce265b9	0.027636396
223	0xbb88fa11	-0.004180201
224	0x3c9ece49	0.019385474
225	0x3d5f4642	0.054510362
226	0x3c9bd8a2	0.019024197
227	0xbd61cf4b	-0.05512933
228	0xbc48d5b1	-0.012257979
229	0xbc047ca4	-0.008086357
230	0x3c3c56fb	0.011495347
231	0x394f8f23	0.00019794381
232	0x3dbe286e	0.09285055
233	0x3d3a9921	0.04555619
234	0xbd8eb75e	-0.06968568
235	0x3bb6a1d9	0.005573493
236	0xbd3fc4fe	-0.046818726
237	0x3cd79cc1	0.026319863
238	0x3bcaecab	0.006192764
239	0x3cb10c7f	0.021612404
240	0xbd3d4909	-0.04621223
241	0x3da93dd9	0.0826375
242	0x3d31a6f5	0.043372113
243	0xbd429d73	-0.047513437
244	0x3d1dffc5	0.038574
245	0x3dc7efba	0.09762521
246	0xbc6a02e1	-0.014282913
247	0xbd12292c	-0.035683796
248	0x3d025da4	0.031827584
249	0xbccb9b66	-0.024854373
250	0xbc482493	-0.012215751
251	0xbd2773d3	-0.040881943
252	0xbd8acbd9	-0.06777162
253	0x3d467c05	0.048458118
254	0x3dab8268	0.083744824
255	0xbdb19c63	-0.086724065

block1.0.bias f4 [32]
0	0x3d93913b	0.07205435
1	0x3e491a39	0.1963891
2	0xbd177053	-0.036972355
3	0x3d67407c	0.05645798
4	0xbe000b3d	-0.12504287
5	0x3da48348	0.080328524
6	0x3df34e88	0.11880213
7	0xbd243672	-0.040090986
8	0x3c82bbe2	0.01595873
9	0xbdf1cdb9	-0.118068166
10	0x3d82b1e3	0.063815854
11	0xbdec0066	-0.115235135
12	0xbe0a134a	-0.1348392
13	0xbdee0859	-0.11622686
14	0xbcb45b4f	-0.022016196
15	0xbde96fb1	-0.113982566
16	0xbe48f31b	-0.19623987
17	0xbda7b6c5	-0.081891574
18	0xbd330759	-0.04370818
19	0xbe428a3c	-0.18998045
20	0xbe022527	-0.12709485
21	0x3d1137b0	0.0354535
22	0xbd785df2	-0.06063647
23	0x3d28379a	0.04106865
24	0xbdae5ebd	-0.08514164
25	0x3d0917c3	0.033469927
26	0x3e3ddae3	0.1854053
27	0x3d3a13fd	0.04542922
28	0xbbf7736a	-0.0075516
29	0xbd045dbd	-0.03231596
30	0xbcaeb527	-0.021326615
31	0xbd718680	-0.05896616

block1.3.weight f4 [16]
0	0x3f7fbb48	0.99895144
1	0x3f801201	1.0005494
2	0x3f7feb40	0.9996834
3	0x3f7f056c	0.9961765
4	0x3f803ef5	1.0019213
5	0x3f803b3c	1.0018077
6	0x3f80210b	1.0010084
7	0x3f7f7f61	0.9980374
8	0x3f7ff467	0.99982303
9	0x3f8024e5	1.0011259
10	0x3f80146a	1.000623
11	0x3f809847	1.0046471
12	0x3f800d63	1.0004085
13	0x3f7f7faa	0.99804175
14	0x3f7f9c22	0.99847615
15	0x3f7f732b	0.9978511

block1.3.bias f4 [16]
0	0x39ea09f9	0.00044639388
1	0x39fef70c	0.0004863072
2	0xba975ba9	-0.0011547703
3	0x3b0f3a4e	0.002185482
4	0x3b7f58a7	0.0038962753
5	0xbaa68bb4	-0.001270643
6	0xba4dbe73	-0.00078485085
7	0xb9825e3e	-0.00024865748
8	0xbb2acab5	-0.0026060764
9	0x39c043d2	0.00036671624
10	0xb96c0be5	-0.00022511145
11	0xbb490765	-0.0030674573
12	0xba7300be	-0.0009269825
13	0x3b03e9d7	0.0020128393
14	0x3a74c1b8	0.00093367277
15	0xb9f3404c	-0.00046396477

block1.3.running_mean f4 [16]
0	0x41ad2e4c	21.647606
1	0xc12a005e	-10.62509
2	0x40a8384a	5.256871
3	0x3f28b334	0.6589844
4	0xc077328f	-3.8624609
5	0x404556c6	3.0834212
6	0xbf5a1b7f	-0.85198206
7	0x40afab48	5.4896584
8	0x410d1a5e	8.818937
9	0xc0c3a451	-6.113808
10	0x40565ae1	3.3492968
11	0x4180ad0e	16.0845
12	0x40de3498	6.94392
13	0x40bd1423	5.908708
14	0x415a0492	13.626116
15	0x3e4d53ed	0.20051546

block1.3.running_var f4 [16]
0	0x423adcf3	46.71577
1	0x4199dd20	19.232971
2	0x403e6a45	2.9752362
3	0x3fb38402	1.402466
4	0x4111c2f2	9.110094
5	0x403b16c8	2.9232655
6	0x40195c9a	2.396277
7	0x407f3693	3.987706
8	0x41065df3	8.397937
9	0x41036fcc	8.214794
10	0x40156ca2	2.3347554
11	0x41c87dc5	25.06141
12	0x40f32ab4	7.598963
13	0x4078354a	3.8782525
14	0x4190d71f	18.10504
15	0x4008db8a	2.1383996

backbone.0.nin.weight f4 [32, 16, 1, 1]
0	0x3e98fd44	0.29880726
1	0xbc8404bf	-0.016115544
2	0xbe4a0b98	-0.19730985
3	0x3aa4b025	0.0012564702
4	0x3e70caaf	0.23514818
5	0xbe1ae822	-0.15127614
6	0x3c1e11db	0.009647812
7	0x3e95e537	0.2927644
8	0xbdfa4c2d	-0.122215606
9	0xbcbc5aec	-0.022992574
10	0x3e172844	0.14761454
11	0xbd9d0a3d	-0.076679684
12	0x3d91523c	0.07095763
13	0x3ea81bee	0.3283381
14	0x3e8648f1	0.26227525
15	0xbe4b4c86	-0.1985341
16	0xbd28e8c9	-0.041237626
17	0x3b9bf438	0.0047593378
18	0x3d256cd3	0.040386986
19	0x3df07526	0.11741094
20	0x3a94772f	0.0011327023
21	0xbe002881	-0.12515451
22	0x3e2f20b1	0.17102315
23	0x3e89ff6b	0.2695268
24	0x3dcf6828	0.10127288
25	0x3daba97b	0.08381935
26	0xbe54ba89	-0.20774283
27	0xbe8f3318	-0.2796867
28	0x3b9eef13	0.004850277
29	0xbe14e0cf	-0.14538883
30	0x3ebc1384	0.3673364
31	0xbd99f3e4	-0.075172216
32	0x3e1fa0b6	0.1558865
33	0xbe7222be	-0.23646066
34	0x3eca7eda	0.39549905
35	0x3b5f6bb9	0.0034091307
36	0x3dba77f9	0.09104914
37	0xbe00adea	-0.12566343
38	0x3c081f1e	0.0083082
39	0x3ddaaeb8	0.10677856
40	0x3e1151c3	0.14191346
41	0x3e09c5d7	0.13454376
42	0x3d3c29d1	0.045938317
43	0xbe6be58b	-0.23036782
44	0x3e0aae88	0.13543141
45	0x3b5ca605	0.0033668291
46	0x3de20b08	0.1103726
47	0xbd200f59	-0.039077137
48	0xbd374865	-0.044746775
49	0x3dc4bab0	0.0960592
50	0xbe50c4d5	-0.20387585
51	0xbeee01e5	-0.4648582
52	0xbd2cf1cb	-0.04222278
53	0x3e9c0d0e	0.3047871
54	0xbee2a705	-0.4426805
55	0xbe83628c	-0.25661123
56	0x3e1b42a2	0.15162137
57	0xbec6d85e	-0.3883695
58	0xbe64fdc5	-0.2236243
59	0x3e08a557	0.13344322
60	0xbc30f8f0	-0.010801539
61	0xbd6a4334	-0.057192996
62	0x3d47783f	0.04869866
63	0x3e4eecb0	0.20207477
64	0x3da26348	0.07929093
65	0x3d243505	0.040089626
66	0xbd2bffa3	-0.04199184
67	0x3de07567	0.10959893
68	0x3e034d12	0.12822369
69	0xbe11a8d8	-0.14224565
70	0x3db5a32b	0.088690124
71	0x3dcd2cb8	0.10018295
72	0x3e08b592	0.13350514
73	0x3e06786b	0.13131873
74	0xbd949e37	-0.072567396
75	0xbea5ebc4	-0.32406437
76	0x3e0b4c97	0.13603435
77	0xbebe7406	-0.37197894
78	0x3e29565c	0.1653685
79	0x3e146025	0.14489801
80	0xbe9041d8	-0.28175235
81	0x3c833997	0.016018672
82	0x3e133f7c	0.14379686
83	0x3e84e39b	0.259549
84	0xbe275bcc	-0.16343611
85	0x3e98e290	0.29860353
86	0xbc717694	-0.014737744
87	0x3c601998	0.013677977
88	0x3ecdeac5	0.40218177
89	0xbf05a14e	-0.52199256
90	0x3d2a11c6	0.041520856
91	0xbe1df964	-0.15427166
92	0x3e167eeb	0.14696853
93	0x3d9c1e4e	0.07622968
94	0xbd55a437	-0.05215856
95	0x3e88b1a9	0.26698044
96	0xbd40b314	-0.047045782
97	0x3dab0e16	0.08352296
98	0x3e983932	0.29731137
99	0xbe09c461	-0.13453819
100	0xbeb65d11	-0.3561788
101	0xbe53f998	-0.20700681
102	0x3e5ad738	0.21371162
103	0xbe297cd6	-0.16551527
104	0x3d8b01d0	0.06787455
105	0x3dd1956d	0.10233579
106	0xbb92dfec	-0.00448226
107	0xbd881d97	-0.06646269
108	0xbe244eef	-0.16045736
109	0xbee1349e	-0.43985456
110	0xbde21493	-0.110390805
111	0x3d94df22	0.07269122
112	0xbdf8c466	-0.12146835
113	0x3ea7fe60	0.3281126
114	0x3dfb96e0	0.122846365
115	0xbe3f05aa	-0.18654504
116	0xbe31153e	-0.1729326
117	0x3e01b821	0.12667896
118	0x3e4c5292	0.19953373
119	0x3e3b0ae4	0.18265873
120	0x3e900b0e	0.28133434
121	0xbd898b19	-0.06715984
122	0x3ea386de	0.31938833
123	0xbe6fb258	-0.23407876
124	0x3de143d7	0.109992675
125	0x3c8d940a	0.017282505
126	0xbe03ff58	-0.12890375
127	0xbe905fc4	-0.28198063
128	0xbe3c7875	-0.18405326
129	0x3d9afe89	0.0756808
130	0xbd3e3aeb	-0.046442907
131	0x3ee2a0e1	0.44263366
132	0x3d2cb58e	0.04216533
133	0x3dc3a9cd	0.09553871
134	0xbdd56a78	-0.10420698
135	0xbe1be059	-0.152223
136	0xbe903216	-0.28163213
137	0x3e5f1cb4	0.21788293
138	0x3dd4e770	0.10395706
139	0x3d2b4e99	0.041823003
140	0x3e8db1e0	0.2767477
141	0xbe9b8d8b	-0.30381426
142	0xbcd8a516	-0.026445907
143	0x3e8030ff	0.2503738
144	0x3b8f1282	0.00436622
145	0x3dab943b	0.08377882
146	0x3e851f33	0.26000366
147	0x3ce68641	0.02814019
148	0xbe0a8b60	-0.1352973
149	0x3e8d07e1	0.27545074
150	0x3e93c455	0.28860727
151	0x3d86e026	0.06585722
152	0xbe4c2c16	-0.19938692
153	0x3e80d383	0.2516137
154	0xbd940ced	-0.07229028
155	0xbe8a41ea	-0.27003413
156	0xbd1fac5b	-0.03898273
157	0xbe86cead	-0.26329556
158	0xbd2741ad	-0.040834118
159	0xbc360d4f	-0.011111571
160	0x3e65a793	0.22427206
161	0x3e229c01	0.15879823
162	0xbe11c70c	-0.14236087
163	0xbd6b746e	-0.057484083
164	0xbe19b97f	-0.15012167
165	0x3e793b54	0.24339038
166	0xbc493d70	-0.012282714
167	0x3e98a1eb	0.29811034
168	0xbdce5959	-0.100756355
169	0xbe29c246	-0.16578016
170	0xbc92a2b4	-0.017899849
171	0xbe13842f	-0.14405893
172	0xbdb5f7c0	-0.08885145
173	0x3e483071	0.19549729
174	0xbe7d4bed	-0.24735995
175	0xbea94d79	-0.3306692
176	0x3d5e4487	0.05426457
177	0x3d887079	0.066620775
178	0x3ca94ad8	0.020665571
179	0x3d149930	0.036278903
180	0xbd67a85a	-0.056557037
181	0x3e039293	0.12848882
182	0x3e40f4a6	0.18843326
183	0x3e417171	0.1889093
184	0xbd6900b3	-0.056885432
185	0xbe43c0ac	-0.19116467
186	0x3e10c5b7	0.14137922
187	0x3ec06026	0.37573355
188	0x3ea9255a	0.3303631
189	0x3e23f3c9	0.16010965
190	0xbe39a82a	-0.18130556
191	0xbda02bed	-0.07820878
192	0xbde2540d	-0.11051188
193	0x3c34a704	0.011026148
194	0x3d8ef2e2	0.0697992
195	0xbedb6ac0	-0.4285488
196	0x3d3404dd	0.04394995
197	0xbe8c777b	-0.27434906
198	0x3d4a9906	0.04946234
199	0x3dc310c7	0.095246844
200	0xbe324045	-0.1740733
201	0x3e85d0f5	0.26135984
202	0x3e923e90	0.28563356
203	0x3ca33a35	0.019925216
204	0xbe747fe8	-0.23876917
205	0xbd44bd50	-0.048032105
206	0xbdb811e8	-0.0898779
207	0x3c202be0	0.009776086
208	0xbe63e729	-0.2225615
209	0x3d605009	0.054763827
210	0x3e4e1559	0.20125331
211	0x3d8d932c	0.069128364
212	0x3e9a4d97	0.3013732
213	0x3db4a14e	0.08819829
214	0x3d85683d	0.065140225
215	0xbe017628	-0.1264273
216	0xbd959f60	-0.07305789
217	0x3e3dfb94	0.18553
218	0xbefa34c4	-0.48868382
219	0x3e69d207	0.22834025
220	0x3d8b099d	0.06788943
221	0x3b6498f8	0.0034881216
222	0x3e15d07d	0.14630313
223	0x3e34c6cd	0.17653961
224	0xbea06d77	-0.31333515
225	0xbe1190de	-0.14215419
226	0x3ebc662f	0.3679671
227	0xbc7a0f59	-0.015262448
228	0x3d29dece	0.04147225
229	0xbc92bcfe	-0.017912384
230	0x3c77da97	0.0151277995
231	0x3e80402f	0.25048968
232	0x3e1a3a00	0.15061188
233	0xbe29e3d7	-0.1659082
234	0x3e1263dc	0.14295906
235	0xbea620b7	-0.32446834
236	0xbdf35a6c	-0.11882481
237	0x3ea95af6	0.3307721
238	0x3e93d5fc	0.28874195
239	0x3e9d7d59	0.30759695
240	0xbeb315a0	-0.34977436
241	0x3eae1420	0.3399973
242	0x3b9db4a0	0.004812792
243	0xbccdee52	-0.025138054
244	0x3f115d4f	0.56783
245	0xbe943527	-0.28946802
246	0xbe074717	-0.13210712
247	0x3eac99a7	0.33710977
248	0xbeaa9415	-0.33316103
249	0x3e348e5f	0.17632435
250	0xbe8fbaec	-0.28072298
251	0xbe4f4ac8	-0.2024337
252	0x3d927072	0.071503535
253	0x3e9a2cf2	0.30112416
254	0x3e93098d	0.28718224
255	0x3e090363	0.13380198

backbone.0.nin.bias f4 [32]
0	0x3e59792d	0.21237631
1	0x3e3058fb	0.17221443
2	0xbe4a6ad4	-0.19767314
3	0x3e480ab5	0.19535334
4	0xbe140268	-0.14454043
5	0xbe701d79	-0.23448743
6	0x3d6dc1a9	0.058046017
7	0x3e67c1e2	0.22632554
8	0xbe5abe02	-0.21361545
9	0x3da2ca2d	0.07948718
10	0x3e020732	0.12698057
11	0xbe7d5c8e	-0.24742338
12	0x3d81cf60	0.06338382
13	0xbdc76a37	-0.09737056
14	0xbe76fe28	-0.2412039
15	0x3e2f3a85	0.17112167
16	0x3e0b4de1	0.13603927
17	0xbe64c066	-0.22339019
18	0xbd763b7b	-0.06011532
19	0xbd23f307	-0.04002669
20	0xbd92c250	-0.071659684
21	0xbe3abcd2	-0.18236092
22	0xbe6bdd47	-0.2303363
23	0x3d62ea0e	0.055398993
24	0xbde0cb0b	-0.109762274
25	0x3e534d14	0.20634872
26	0xbd87b654	-0.06626573
27	0x3da87404	0.08225253
28	0x3e1d3fd9	0.15356387
29	0xbda4cac3	-0.08046486
30	0xbb7070ef	-0.0036688407
31	0x3d2ac323	0.041690003

backbone.0.bn1.weight f4 [16]
0	0x3f80302d	1.0014702
1	0x3f7f3a54	0.99698377
2	0x3f7fd492	0.9993373
3	0x3f7efde9	0.99606186
4	0x3f8026aa	1.0011799
5	0x3f800422	1.0001261
6	0x3f802076	1.0009906
7	0x3f7f9a34	0.9984467
8	0x3f8010ac	1.0005088
9	0x3f80225d	1.0010487
10	0x3f80640f	1.0030535
11	0x3f802240	1.0010452
12	0x3f7fb4f2	0.99885476
13	0x3f7fe3b1	0.99956805
14	0x3f7f772f	0.99791235
15	0x3f80137d	1.0005947

backbone.0.bn1.bias f4 [16]
0	0x39bf9028	0.00036537764
1	0xbae84c1d	-0.0017722879
2	0x3aed52a2	0.0018106292
3	0xbb11acc2	-0.0022228216
4	0x3b05b07c	0.0020399382
5	0x3a85f44e	0.0010219903
6	0xbab26fbf	-0.0013613625
7	0xba2646f3	-0.000634297
8	0x3a91781b	0.0011098416
9	0x3aa59389	0.001263247
10	0xbac6bda6	-0.0015162721
11	0x3a16bf67	0.0005750567
12	0xba1f45ea	-0.00060757867
13	0x3b40a70d	0.0029396445
14	0x3ac77a92	0.0015219024
15	0xbab16fe8	-0.0013537379

backbone.0.bn1.running_mean f4 [16]
0	0x3f1ee19e	0.62063015
1	0x3e55ebca	0.20890728
2	0x3ee702e6	0.451194
3	0x3f0e09bf	0.5548362
4	0x3e4805dc	0.19533485
5	0x3e518a7d	0.20462985
6	0x3e96a10d	0.29419747
7	0x3f287c91	0.65815073
8	0x3eb29856	0.34881848
9	0x3f16afbc	0.588619
10	0x3eac6e8c	0.3367809
11	0x3e49ac86	0.19694719
12	0x3f11023a	0.5664402
13	0x3e5ba2dd	0.21448846
14	0x3ea3f7d4	0.32025015
15	0x3f1f0100	0.621109

backbone.0.bn1.running_var f4 [16]
0	0x3e664699	0.22487868
1	0x3e1a5e78	0.150751
2	0x3e81c944	0.25348866
3	0x3e8358df	0.2565374
4	0x3e5915ff	0.21199797
5	0x3e9e4b17	0.30916664
6	0x3f0fcf3b	0.56175584
7	0x3ed6df45	0.41967216
8	0x3f64eec7	0.89426845
9	0x3edd1a89	0.43184307
10	0x3eadb15a	0.3392437
11	0x3f19fd48	0.601521
12	0x3f109539	0.56477696
13	0x3ee8605f	0.45386025
14	0x3e95f0f3	0.29285392
15	0x3f3d6850	0.73987293

backbone.0.conv.weight f4 [48, 16, 3, 3]
0	0x3d1bd911	0.038048808
1	0x3da8b8a3	0.08238342
2	0x3c8dcdd3	0.017310059
3	0xbc640046	-0.013916081
4	0x3d8e4c40	0.06948137
5	0x3d9adfcc	0.07562217
6	0x3df4bf4a	0.11950548
7	0x3cd1f401	0.025629045
8	0xbc242615	-0.010018845
9	0xbc764305	-0.015030627
10	0x3dc8584f	0.097824685
11	0xbbaf1bc3	-0.0053438856
12	0x3b50a030	0.003183376
13	0x3b96de99	0.0046041724
14	0xbc7550b8	-0.014972858
15	0xbd0088f5	-0.031380612
16	0x3d470492	0.048588343
17	0x3c252465	0.010079478
18	0x3da67077	0.0812692
19	0xbda1f230	-0.07907522
20	0x3b730669	0.0037082678
21	0xbd9dc14b	-0.07702883
22	0x3d9b9c71	0.07598198
23	0x3baef72b	0.0053395233
24	0x3dd65e81	0.10467244
25	0x3dab83f6	0.08374779
26	0xbcf8fca4	-0.030393906
27	0x3db3e466	0.08783798
28	0x3ce3a08c	0.027786516
29	0xbe05e494	-0.13075477
30	0x3d5964d8	0.053074688
31	0x3c95230d	0.01820519
32	0xbce680d4	-0.028137602
33	0xbbc5fd2c	-0.0060421433
34	0xbde906a7	-0.11378222
35	0xbdbce8a9	-0.09224064
36	0xbd242bdc	-0.04008089
37	0xbc053baf	-0.008131905
38	0x3d159cd3	0.036526512
39	0x3d896e89	0.06710536
40	0x3ca58297	0.020203872
41	0x3d4c5fc4	0.049896017
42	0x3d8501c8	0.0649448
43	0xba3dd819	-0.0007241979
44	0xbd2e9fde	-0.04263293
45	0xbe111b6a	-0.14170614
46	0x3cf81c27	0.030286862
47	0xbda74316	-0.081670925
48	0x3c53c387	0.012925035
49	0xbd0a7f4c	-0.033812806
50	0x3d74e1a3	0.059785496
51	0x3dda4e05	0.10659412
52	0xbdb7de72	-0.08977975
53	0x3d1d39a8	0.038385063
54	0xbc206b0b	-0.009791146
55	0xbc73e585	-0.014886265
56	0xbd6632cb	-0.056200784
57	0x3d8d0461	0.06885601
58	0xbc66315e	-0.014049856
59	0xbccaee44	-0.024771817
60	0xbccc7878	-0.024959788
61	0xbd518a13	-0.05115707
62	0x395b3c67	0.00020907969
63	0x3c44a280	0.012001634
64	0xbb943db2	-0.004523956
65	0xbcf093fb	-0.029367438
66	0xb9bf314d	-0.0003646709
67	0xbd6b969f	-0.05751669
68	0x3d70c092	0.0587774
69	0x3cb42842	0.021991853
70	0x3c690f4e	0.01422484
71	0x3c41ffc5	0.011840765
72	0xbd5e9efc	-0.054350838
73	0x3d451b28	0.0481216
74	0x3d25654d	0.04037981
75	0x3d36ab31	0.044596855
76	0x3ce0a4b0	0.02742228
77	0xbd045702	-0.03230954
78	0xbc5afd25	-0.013366018
79	0x3d1afca2	0.037838586
80	0x3c12de84	0.008964185
81	0xbdbd50b3	-0.09243908
82	0x3d7b16d3	0.061301064
83	0xbd6d755a	-0.057973243
84	0x3df628a4	0.1201947
85	0x3a99eb12	0.001174303
86	0xbc707056	-0.0146752205
87	0xbbe1023d	-0.006866722
88	0xbdadbe97	-0.08483618
89	0xbcf726e1	-0.030169906
90	0xbc642f82	-0.013927342
91	0xbce45b69	-0.027875619
92	0x3c250000	0.010070801
93	0xbdb97668	-0.09055787
94	0xbd949c22	-0.072563425
95	0xbd0f87de	-0.035041682
96	0xbcc50de8	-0.024054483
97	0xbc68b38a	-0.014202962
98	0x3d6497ca	0.05580882
99	0x3b81ba69	0.0039589894
100	0xbd5a27fb	-0.053260785
101	0xbdafe104	-0.0858784
102	0xbd6c8205	-0.057741184
103	0x3d1126bd	0.035437334
104	0xbc11141a	-0.00885489
105	0xbc8a3264	-0.016869731
106	0x3d319a65	0.043360133
107	0xbaa0077c	-0.0012209262
108	0xbd513faa	-0.051086105
109	0xbb30fee7	-0.0027007402
110	0x3d0b8aff	0.034068104
111	0xbd34dd4f	-0.04415637
112	0xbbc57fb3	-0.006027186
113	0xbddc9eae	-0.10772453
114	0x3da6f6a6	0.08152513
115	0xbdb5dc41	-0.08879901
116	0x3d9d1d2d	0.076715805
117	0xbda546a5	-0.08070115
118	0xbe0f21c6	-0.13977727
119	0x3d8ff554	0.070292145
120	0x3d84b812	0.06480421
121	0xbb44890c	-0.0029988913
122	0x3d53abfd	0.051677693
123	0xbcf1b851	-0.029506834
124	0xba0a65c0	-0.0005279444
125	0x3dc7c7af	0.097548835
126	0x3bab1e72	0.005222135
127	0x3e0e069f	0.13869713
128	0x3e03bede	0.12865779
129	0x3d4b447d	0.049625862
130	0x3cff4dcb	0.031165024
131	0x3d98dbed	0.074638225
132	0x3d749eeb	0.05972187
133	0xbcd6d35d	-0.026223833
134	0xbc35b787	-0.01109112
135	0xbc91eeb7	-0.017814023
136	0x3ce296d4	0.027659811
137	0xbce56039	-0.027999984
138	0xbd4f68ef	-0.05063718
139	0x3cc7767f	0.024348496
140	0x3c74a37e	0.014931558
141	0xbbc5c6f8	-0.006035682
142	0xbd716f99	-0.05894432
143	0xbd7a9e57	-0.06118616
144	0x3cf93283	0.030419594
145	0xbd8c3030	-0.068451285
146	0x3d9dc26b	0.07703098
147	0x3caec178	0.021332487
148	0x3d7d5a09	0.061853442
149	0x3d7e4409	0.062076602
150	0x3d081a2d	0.03322809
151	0xbd9959fc	-0.07487866
152	0x3c9f984e	0.019481804
153	0x3d20402d	0.039123703
154	0x3ceaceb6	0.02866302
155	0x3dc7fb04	0.09764674
156	0x3ba10e6e	0.00491505
157	0x3caae5de	0.020861562
158	0xbca7ba70	-0.020474643
159	0xbd48b43a	-0.049000002
160	0xbc6c7c53	-0.014433938
161	0xbb1801ad	-0.0023194358
162	0x3de0c7b0	0.10975587
163	0x3d8d037c	0.0688543
164	0x3d7c021e	0.061525457
165	0x3c03e31d	0.0080497535
166	0x3c81f52b	0.015863976
167	0x3c46358f	0.01209773
168	0x3c4bb832	0.012434052
169	0xbca826cf	-0.020526318
170	0x3cd5522d	0.026040161
171	0xbd3bd033	-0.04585285
172	0x3d032da3	0.032025944
173	0xbcb5c963	-0.022190755
174	0xbd54d9a4	-0.05196537
175	0x3d9918ce	0.07475434
176	0xbd3cb31b	-0.046069246
177	0xbd74f2da	-0.059801914
178	0xbd3cc8cb	-0.04608993
179	0xbd37b7b2	-0.04485292
180	0x3b88fe94	0.0041807387
181	0xbcec6562	-0.028856937
182	0x3cff16c6	0.031138789
183	0xbb2ea819	-0.0026650487
184	0xbca06c3f	-0.019582866
185	0x3cc64b43	0.02420581
186	0x3b5f1e4b	0.0034045156
187	0xbd98e940	-0.07466364
188	0xbc828faf	-0.015937654
189	0x3e048d27	0.1294447
190	0x3d9c2f2d	0.076261856
191	0xbd273aef	-0.040827688
192	0x3caf7ecc	0.021422766
193	0xbd821fcc	-0.06353721
194	0x3cc2c3ed	0.023775065
195	0xbd8da1ca	-0.069156244
196	0x3d01f811	0.031730715
197	0xbda6b2e6	-0.08139591
198	0x3d0856c0	0.033285856
199	0xbdb62779	-0.088942476
200	0x3d893066	0.066986844
201	0x3cc3b370	0.023889273
202	0xbbe72880	-0.0070543885
203	0x3d8fb3fd	0.07016752
204	0x3d385562	0.045003302
205	0x3c830359	0.015992807
206	0x3dc24cb7	0.094872884
207	0x3dea145f	0.11429667
208	0xbbb41c60	-0.0054965466
209	0xbd440b80	-0.04786253
210	0x3d3fcec0	0.04682803
211	0xbbfb2357	-0.007664125
212	0x3bbb2302	0.0057109604
213	0xbb8e4286	-0.0043414263
214	0x3d15d995	0.036584456
215	0x3da74649	0.08167703
216	0xbcda4c7b	-0.026647797
217	0x3de32b2f	0.11092221
218	0x3db1afa4	0.08676079
219	0x3e0cee1b	0.13762705
220	0xbdad9491	-0.084756024
221	0xbd13aae2	-0.03605164
222	0x3db6d8a9	0.089280434
223	0xbd4dc51c	-0.050236806
224	0x3c3813fb	0.011235232
225	0xbd61bf8b	-0.05511431
226	0xbda07b38	-0.07836002
227	0xbe0d2027	-0.13781796
228	0xbc8b5f61	-0.017013254
229	0xbd3966b0	-0.045263946
230	0xbda3069e	-0.079602465
231	0x3be1f7cc	0.006895995
232	0x3d3bba5e	0.04583203
233	0xbd42a732	-0.04752273
234	0xbd3b693f	-0.045754667
235	0x3d358064	0.044311896
236	0x3c81e0b9	0.015854226
237	0xbd44eb7c	-0.048076138
238	0xbd6df90c	-0.058098838
239	0xbd809e0b	-0.06280144
240	0xbd670968	-0.056405455
241	0x3d52008f	0.051270064
242	0xbd8de719	-0.06928844
243	0x3d6913b1	0.056903545
244	0x3d5e0601	0.054204945
245	0xbc23b1e7	-0.009991146
246	0x3c96da2a	0.018414576
247	0xbcb6e13c	-0.022324197
248	0xbd31c708	-0.0434027
249	0xbca46d7d	-0.02007174
250	0xbab000c7	-0.0013427966
251	0x3d4728e6	0.04862299
252	0x3c2ea02e	0.010658307
253	0x3cd48537	0.025942428
254	0x3df4cd46	0.11953215
255	0x3dc8806a	0.09790118

backbone.0.conv.bias f4 [48]
0	0x3d2ac99f	0.041696187
1	0xbcbb27c3	-0.022846108
2	0xbcd3f975	-0.025875786
3	0x3d07cade	0.033152454
4	0xbccc64c9	-0.024950402
5	0xbd24e45b	-0.04025684
6	0xbd2dd599	-0.04244003
7	0xbd18c0fe	-0.037293427
8	0x3c45141c	0.01202872
9	0x3d95ffb1	0.0732416
10	0xbd885775	-0.06657306
11	0xbca22015	-0.019790689
12	0xbce9072c	-0.028445803
13	0xbc8f85b8	-0.017519817
14	0x3c254c0f	0.010088935
15	0xbd6c56e2	-0.057700045
16	0x3cc93dfe	0.024565693
17	0xbcc79d22	-0.024366919
18	0x3c3fb674	0.011701215
19	0xbd310b88	-0.043223888
20	0xbd78919a	-0.06068573
21	0xbd04189c	-0.03225003
22	0xbd897e37	-0.06713527
23	0xbd960767	-0.07325631
24	0x3d01b0b7	0.03166267
25	0xbcfea68c	-0.031085275
26	0xbd9b114c	-0.075716585
27	0xbcc623fa	-0.024187077
28	0xbca8dd7d	-0.020613426
29	0x3d83f10e	0.06442462
30	0xbd6bfe69	-0.05761567
31	0xbd8bc7d9	-0.06825227
32	0xbbd4044e	-0.0064702397
33	0xbcbe32a2	-0.023217503
34	0xbc5a1ad8	-0.013312064
35	0x3da20deb	0.07912811
36	0xbda153b9	-0.07877297
37	0x3d1e6fea	0.03868095
38	0xbcdf85be	-0.027285453
39	0x3d7eca08	0.06220439
40	0x3d10fc2c	0.03539674
41	0x3cb6af61	0.022300424
42	0xbd1b22ae	-0.03787487
43	0x3d471b20	0.048609853
44	0x3c3b2f8f	0.011424913
45	0x3d16ab65	0.03678455
46	0xbd9de168	-0.077090085
47	0xbd4220a7	-0.04739442

backbone.0.bn2.weight f4 [24]
0	0x3f7fa07c	0.99854255
1	0x3f80225d	1.0010487
2	0x3f803438	1.0015936
3	0x3f7f4226	0.9971031
4	0x3f802518	1.001132
5	0x3f801177	1.000533
6	0x3f7f42cc	0.997113
7	0x3f8088af	1.0041713
8	0x3f800b93	1.0003532
9	0x3f7ed9f0	0.99551296
10	0x3f807643	1.0036091
11	0x3f7f901c	0.9982927
12	0x3f7fbc08	0.9989629
13	0x3f802e3b	1.0014108
14	0x3f7eb3f4	0.99493337
15	0x3f7f7701	0.9979096
16	0x3f80406e	1.0019662
17	0x3f7f30c5	0.9968379
18	0x3f7ff6e6	0.9998611
19	0x3f7ff47d	0.99982435
20	0x3f808271	1.0039808
21	0x3f802ca3	1.0013622
22	0x3f80973a	1.0046151
23	0x3f800f89	1.0004741

backbone.0.bn2.bias f4 [24]
0	0xbaba80bf	-0.0014229043
1	0xbae87db4	-0.0017737658
2	0x3a4ab14f	0.00077321095
3	0xba919b35	-0.0011108877
4	0x384d8a97	4.900488e-05
5	0xbab92ba8	-0.001412739
6	0xb910534a	-0.00013763938
7	0xba8021af	-0.0009775663
8	0xbb138791	-0.0022511224
9	0x394b59e6	0.00019393078
10	0x3b186cb7	0.0023258158
11	0xbb55727a	-0.0032569454
12	0xbb1d0440	-0.0023958832
13	0xbaaf7f09	-0.00133893
14	0x39c1882f	0.00036913293
15	0x385170b0	4.993443e-05
16	0x3af2878e	0.0018503533
17	0x3ad63a93	0.0016344361
18	0xb89db00f	-7.519137e-05
19	0x3b27ce21	0.002560504
20	0x396d6964	0.00022641342
21	0xb911ccd2	-0.00013904579
22	0x3ad5df67	0.001631719
23	0xb9073b53	-0.00012896703

backbone.0.bn2.running_mean f4 [24]
0	0x3f435e2c	0.7631557
1	0x3f31b48a	0.69416106
2	0x3f487586	0.78304327
3	0x3f31dfbc	0.69482017
4	0x3f5959d6	0.84902704
5	0x3f47e565	0.78084403
6	0x3f872d3d	1.0560681
7	0x3f533f5f	0.8251857
8	0x3f32f1c2	0.69900143
9	0x3f641c39	0.89105564
10	0x3f2e5dc7	0.6811184
11	0x3f5f533c	0.8723638
12	0x3f093b06	0.5360569
13	0x3f5b2ddf	0.8561687
14	0x3f32bb16	0.6981672
15	0x3f32180b	0.69567937
16	0x3f44e886	0.769173
17	0x3f3da3e9	0.7407823
18	0x3f2f4489	0.6846395
19	0x3f4d60a8	0.8022561
20	0x3f489355	0.7834981
21	0x3f49f0e4	0.78883195
22	0x3f0c101b	0.54712075
23	0x3f408e0c	0.75216746

backbone.0.bn2.running_var f4 [24]
0	0x3ed84c5e	0.42245764
1	0x3edc4a87	0.4302561
2	0x3e977478	0.29581046
3	0x3e2da9c8	0.16959298
4	0x3e83343a	0.25625783
5	0x3e8e1e30	0.27757406
6	0x3ef8b310	0.48574114
7	0x3ef81637	0.4845445
8	0x3e2ec485	0.17067154
9	0x3e58e50c	0.21181124
10	0x3ed37e01	0.4130707
11	0x3e955762	0.2916823
12	0x3dfc4eec	0.12319741
13	0x3eaac416	0.33352727
14	0x3e5dd1cb	0.21662061
15	0x3e8c38cb	0.2738708
16	0x3ec2004d	0.37890854
17	0x3eafcd2b	0.34336218
18	0x3e4e9df6	0.20177445
19	0x3eae3d91	0.34031346
20	0x3f1d0ba1	0.6134587
21	0x3ee7a1b9	0.45240572
22	0x3e58fc79	0.2119006
23	0x3e680cc1	0.22661115

backbone.1.nin.weight f4 [48, 24, 1, 1]
0	0xbd856ab8	-0.065144956
1	0xbe5dfcb2	-0.21678427
2	0x3ecff49b	0.40616307
3	0xbd1ef14b	-0.038804334
4	0x3ebd4655	0.36967722
5	0xbcec5b12	-0.02885202
6	0xbe1c79db	-0.15280859
7	0xbe8c1d8f	-0.273663
8	0xbdb8ca00	-0.090229034
9	0xbddb323d	-0.107029416
10	0xbdd83051	-0.105560906
11	0xbdb2f23a	-0.08737607
12	0x3d15f95b	0.036614757
13	0x3e98aa74	0.29817545
14	0x3e2aba2f	0.16672586
15	0x3d5a2a96	0.05326327
16	0xbe10b746	-0.14132413
17	0xbe44295c	-0.19156402
18	0xbd1d921d	-0.038469423
19	0x3d22f2d4	0.03978236
20	0x3d5c1de0	0.05373943
21	0xbd9f3d5a	-0.07775374
22	0xbe852df4	-0.26011622
23	0x3e969e77	0.29417774
24	0x3e584375	0.21119483
25	0x3dac6b32	0.084188834
26	0xbe3f1d23	-0.18663459
27	0x3cf0ca6a	0.029393394
28	0x3d8ebaa8	0.069691956
29	0xbda2a8b0	-0.07942331
30	0x3dc7ee6c	0.09762272
31	0xbe2a119f	-0.16608284
32	0xbdbb13d8	-0.09134644
33	0x3e1b1818	0.1514591
34	0x3e508ef0	0.20367026
35	0xbe1877ef	-0.14889501
36	0xbe282ca7	-0.16423284
37	0x3c797466	0.015225505
38	0xbe004f09	-0.1253015
39	0x3e2a7a65	0.16648252
40	0x3e8244bd	0.25443068
41	0xbcc13409	-0.023584383
42	0xbd86ffb2	-0.06591739
43	0xbd918ac7	-0.07106548
44	0x3ebdae3c	0.37046993
45	0xbd4a22f7	-0.04934975
46	0x3ddf2f99	0.108977504
47	0xbe55f13e	-0.20892808
48	0xbe588c26	-0.21147212
49	0x3d598677	0.05310675
50	0xbd9c67e4	-0.07637003
51	0xbe4cb0c4	-0.19989306
52	0xbe28cfb2	-0.1648548
53	0xbdf918a9	-0.12162907
54	0x3ea44050	0.32080317
55	0xbdd2237f	-0.102606766
56	0xbe967211	-0.293839
57	0x3dc94ca2	0.0982907
58	0xbec17c39	-0.37790087
59	0xbe529850	-0.20565915
60	0x3bd8f708	0.0066212453
61	0xbda19cf5	-0.07891265
62	0xbdb09e86	-0.08623986
63	0x3dd1a27e	0.10236071
64	0xbe953678	-0.2914312
65	0xbd25980f	-0.040428218
66	0xbe6b2dd7	-0.22966705
67	0x3c9b9167	0.018990232
68	0x3dac5ccc	0.08416137
69	0xbd51a628	-0.05118385
70	0x3e5c7344	0.21528345
71	0xbe0130f4	-0.1261633
72	0x3e0cc778	0.13747966
73	0xbd30833b	-0.0430939
74	0xbe2a6910	-0.1664164
75	0x3d87327d	0.06601427
76	0x3dbc834f	0.092047326
77	0x3e8e29b0	0.2776618
78	0xbe29a6cd	-0.16567536
79	0xbe84b4a4	-0.25919068
80	0xbc929000	-0.01789093
81	0x3df6507f	0.12027072
82	0xbe7e6d82	-0.24846461
83	0x3d89af71	0.06722916
84	0xbd4a42c4	-0.04938008
85	0x3e91a879	0.28448847
86	0xbd94c805	-0.07264713
87	0xbe01f9ec	-0.12692994
88	0xbcfe3f92	-0.031036172
89	0xbe39b835	-0.18136676
90	0x3d1d2a4a	0.038370408
91	0xbe1ea1d5	-0.15491422
92	0xbe43e5e3	-0.19130664
93	0xbe86ac86	-0.263035
94	0xbe72c75a	-0.23708859
95	0xbe164177	-0.1467341
96	0x3d4f5c93	0.050625395
97	0xbeaba06c	-0.3352083
98	0xbe36efab	-0.17864864
99	0x3c53155e	0.012883512
100	0x3d40f3bf	0.047107454
101	0xbe334149	-0.17505373
102	0x3e7a43cf	0.2443993
103	0xbe0718f7	-0.13193117
104	0x3e1e7b44	0.1547671
105	0xbecf0db1	-0.40440133
106	0x3e843945	0.25824943
107	0xbc8fc923	-0.017551964
108	0xbc0c0129	-0.0085451985
109	0x3e44ca5c	0.19217819
110	0x3d0823d4	0.033237293
111	0xbc904565	-0.017611215
112	0x3e926199	0.28590086
113	0xbe086224	-0.13318688
114	0xbd8e9a9b	-0.069630824
115	0x3db5519a	0.08853455
116	0x3e18f524	0.14937264
117	0x3eee7220	0.46571445
118	0xbe3c9f74	-0.18420202
119	0x3a1459b6	0.000565912
120	0xbdd853a5	-0.10562829
121	0xbda891fc	-0.08230969
122	0x3c06a36f	0.008217677
123	0x3e7b4a80	0.24540138
124	0xbe464baf	-0.19364808
125	0xbe91c349	-0.28469303
126	0xbe7722cc	-0.24134368
127	0xbe2413f8	-0.16023242
128	0x3ea6b9a7	0.32563516
129	0x3d23f97f	0.04003286
130	0xbe3185e0	-0.17336226
131	0xbe405b52	-0.18784836
132	0xbe137d3a	-0.14403239
133	0x3e69748e	0.22798368
134	0x3dd00ee8	0.10159093
135	0x3e3efc31	0.18650891
136	0xbc0b03ad	-0.008484763
137	0x3db7ba86	0.089711234
138	0x3e57f6ea	0.21090284
139	0xb8dc203d	-0.00010496422
140	0x3ea261c9	0.3171523
141	0xbe8fed02	-0.2811051
142	0x3e939f67	0.28832552
143	0xbdb239e6	-0.087024495
144	0xbc9c5df4	-0.01908777
145	0x3df500c2	0.11963035
146	0x3d818076	0.0632333
147	0x3e2c65c9	0.16835703
148	0xbe83fdc6	-0.2577955
149	0x3de1208b	0.10992535
150	0x3e5aaf4a	0.2135593
151	0xbe838b77	-0.2569234
152	0x3e2024e0	0.15639067
153	0x3e853ddb	0.26023754
154	0x3d72b461	0.059254054
155	0xbe540941	-0.20706655
156	0xbd4edd42	-0.050503977
157	0xbe1bf8f3	-0.15231685
158	0x3e39ad36	0.18132481
159	0xbe82f71b	-0.25579152
160	0x3e8be129	0.2732022
161	0x3e9dbbdd	0.3080739
162	0xbe0a1eaf	-0.13488267
163	0x3dac1d28	0.084039986
164	0x3d9a6f06	0.07540707
165	0xbde26d1b	-0.110559665
166	0x3dc3a335	0.09552614
167	0x3d1dc5d8	0.038518757
168	0xbd855639	-0.06510586
169	0x3e852b3e	0.26009554
170	0xbe2113af	-0.15730165
171	0xbec42d46	-0.3831579
172	0xbd341123	-0.043961655
173	0x3dcc6ff4	0.09982291
174	0x3e4e59ad	0.20151396
175	0xbcafa6ec	-0.0214419
176	0x3e3462ba	0.17615786
177	0xbe7bbcfc	-0.2458381
178	0xbd801f67	-0.062559895
179	0x3dc8f6ea	0.0981272
180	0x3e3c63c3	0.18397431
181	0xbe025259	-0.12726726
182	0x3dbfadd8	0.0935933
183	0x3e0b20e3	0.13586764
184	0x3e2d8b28	0.16947615
185	0x3d82b593	0.06382289
186	0xbd4ef95c	-0.050530776
187	0x3e603dd6	0.21898589
188	0xbdef0439	-0.11670727
189	0x3d726b36	0.059184276
190	0x3dc2b9da	0.095081046
191	0x3d4f7e84	0.050657764
192	0xbc8d9c8c	-0.017286561
193	0x3d585946	0.052819513
194	0xbe7c6591	-0.2464812
195	0x3ea2b7b9	0.31780794
196	0xbe23c9ba	-0.15994921
197	0x3e2f24cf	0.17103885
198	0xbe03ef28	-0.128842
199	0x3dc81dd0	0.09771311
200	0xbe12f791	-0.14352252
201	0x3d0e3475	0.034717996
202	0xbd7b54e9	-0.061360274
203	0x3d2e3a77	0.042536225
204	0x3d82a546	0.0637918
205	0x3def8a36	0.116962835
206	0x3d6c99b5	0.057763774
207	0x3e2c1898	0.16806257
208	0xba3d13ee	-0.00072127476
209	0xbe62230b	-0.2208368
210	0x3e47fe6c	0.19530648
211	0x3e844c13	0.2583929
212	0x3e26795b	0.16257231
213	0xbe51f3b0	-0.20503116
214	0xbe040c2e	-0.12895271
215	0x3de5b758	0.11216611
216	0x3d9c7c8a	0.076409414
217	0xbe41e16d	-0.1893365
218	0xbe595f64	-0.21227795
219	0xbdad69a5	-0.08467416
220	0x3dfa6d71	0.122279055
221	0x3d98a43a	0.07453199
222	0x3ec2f1d8	0.38075137
223	0x3cfdb9fc	0.030972473
224	0xbbb65217	-0.005563985
225	0x3e0899a2	0.13339856
226	0xbe95d078	-0.29260612
227	0x3d0fab92	0.03507573
228	0x3d41276e	0.047156744
229	0x3d8569bb	0.06514307
230	0xbdd2a63a	-0.102856115
231	0x3d88f268	0.0668686
232	0x3e765814	0.24057037
233	0xbc8ea33a	-0.017411817
234	0xbe14e1d0	-0.14539266
235	0xbe63fe7a	-0.22265044
236	0x3b63c28d	0.0034753412
237	0x3dfc7dfc	0.12328717
238	0x3d58ae16	0.052900396
239	0xbe1a584a	-0.15072742
240	0xbd757014	-0.05992134
241	0x3c800d24	0.015631266
242	0x3e1ca002	0.15295413
243	0xbe364c6b	-0.17802589
244	0xbead29e9	-0.33821037
245	0x3e50008a	0.20312706
246	0xbe5f5adf	-0.21812008
247	0x3e2727f9	0.16323842
248	0xbdc8fb98	-0.09813613
249	0xbc9559f6	-0.018231373
250	0x3e8d55e9	0.27604607
251	0xbe1bb950	-0.1520741
252	0xbe518c9b	-0.20463793
253	0x3d5fae4d	0.054609586
254	0xbb52063e	-0.0032047178
255	0x3da9e6b9	0.0829596

backbone.1.nin.bias f4 [48]
0	0xbd96741b	-0.07346364
1	0x3c947da4	0.018126316
2	0x3e04788d	0.12936611
3	0x3c1ca5d1	0.009561018
4	0x3e4446eb	0.19167678
5	0x3e12f6ba	0.14351931
6	0xbd64f2cf	-0.055895623
7	0x3d510dd8	0.051038593
8	0xbd468b0d	-0.048472453
9	0x3d7d779f	0.061881658
10	0xbd220177	-0.03955218
11	0xbd31aa50	-0.043375313
12	0x3db1067a	0.086438134
13	0xbdc615b1	-0.09672106
14	0xbc1b8566	-0.009492254
15	0xbd88efe4	-0.066863805
16	0x3dfd894c	0.12379703
17	0x3d5ce34c	0.053927705
18	0xbd9516e3	-0.07279756
19	0xbe1735b1	-0.14766575
20	0x3de64c83	0.11245062
21	0xbd5c29c3	-0.053750765
22	0x3d75ef55	0.060042698
23	0x3b8c7876	0.004286821
24	0x3df877e5	0.12132243
25	0xbe00b903	-0.12570576
26	0xbd9f9a6c	-0.077931255
27	0x3e36c438	0.17848289
28	0x3e3f82df	0.18702267
29	0x3dc60a7e	0.0966997
30	0xbd2561dd	-0.040376533
31	0xbd1555ad	-0.03645866
32	0x3cafb127	0.021446778
33	0x3e299b77	0.16563211
34	0x3dd5eb54	0.10445276
35	0xbe2fe06d	-0.17175455
36	0x3e22e60c	0.15908068
37	0x3da01f6d	0.07818494
38	0xbd689f66	-0.05679264
39	0xbdc30172	-0.0952176
40	0xbe27d5b5	-0.16390117
41	0x3dce008c	0.10058698
42	0xbdf8f4fd	-0.12156103
43	0xbe1ffd2c	-0.15623921
44	0x3cf1240d	0.029436136
45	0xbc269ecf	-0.010169699
46	0x3e03692c	0.12833089
47	0x3e3c33b7	0.18379103

backbone.1.bn1.weight f4 [24]
0	0x3f7ec8e3	0.9952528
1	0x3f80f5e3	1.0075039
2	0x3f7fab9b	0.99871224
3	0x3f7f349c	0.9968965
4	0x3f80234e	1.0010774
5	0x3f802182	1.0010226
6	0x3f7e5767	0.99352115
7	0x3f806ffe	1.0034177
8	0x3f7f2b18	0.9967513
9	0x3f80205b	1.0009874
10	0x3f7ff5ac	0.9998424
11	0x3f8016d7	1.000697
12	0x3f8032ae	1.0015466
13	0x3f8063fe	1.0030515
14	0x3f802bd9	1.0013381
15	0x3f7f2ef2	0.9968101
16	0x3f7fa5e3	0.998625
17	0x3f7fcca9	0.9992166
18	0x3f803512	1.0016196
19	0x3f8000a6	1.0000198
20	0x3f7ebdc3	0.99508303
21	0x3f80843d	1.0040356
22	0x3f7f16d5	0.99644214
23	0x3f810817	1.0080594

backbone.1.bn1.bias f4 [24]
0	0x3af79e73	0.0018891826
1	0x3b5ebfef	0.0033988913
2	0x3a9f8cf0	0.001217274
3	0xbaede324	-0.0018149358
4	0x3b578692	0.0032886607
5	0xbb5aa0ce	-0.0033360007
6	0x39d46828	0.00040513393
7	0x3af909af	0.0019000078
8	0xbacf54f5	-0.0015818166
9	0xbad27e19	-0.0016059309
10	0x3a758395	0.00093656156
11	0x3aedaf8c	0.0018133982
12	0x3a8f9a4a	0.0010956016
13	0x39915a92	0.00027724035
14	0xbae43a28	-0.0017412351
15	0x38d0c624	9.9551195e-05
16	0x3a91a654	0.0011112192
17	0xba288844	-0.00064289966
18	0xbb392bfb	-0.0028254974
19	0x3a8ddb38	0.0010822779
20	0x3adbfd79	0.0016783915
21	0xba15a589	-0.00057085656
22	0xba7b7fa2	-0.0009593909
23	0xba4152eb	-0.00073747215

backbone.1.bn1.running_mean f4 [24]
0	0x3ec21c0c	0.37912023
1	0x3e6ea1a5	0.2330385
2	0x3f136ea0	0.57590675
3	0x3ef9d445	0.4879476
4	0x3f57579f	0.84118074
5	0x3f265468	0.64972544
6	0x3e8fb1a5	0.2806522
7	0x3f023f23	0.5087759
8	0x3f35acce	0.70966804
9	0x3f0e90c2	0.5568963
10	0x3ebcd602	0.36882025
11	0x3e3c208b	0.18371789
12	0x3f22d63c	0.63608146
13	0x3e8cc074	0.2749058
14	0x3e97d385	0.29653564
15	0x3e51ca42	0.20487311
16	0x3f3897ea	0.721068
17	0x3f0f7d54	0.5605061
18	0x3e821f3b	0.25414452
19	0x3f16885e	0.5880183
20	0x3eeea3c9	0.46609333
21	0x3ea08546	0.3135168
22	0x3f2ba3b8	0.6704669
23	0x3ecff1c0	0.40614128

backbone.1.bn1.running_var f4 [24]
0	0x3eae40a3	0.3403369
1	0x3ee22e21	0.4417582
2	0x3e8a5e30	0.27024984
3	0x3e9313b0	0.28725958
4	0x3ed0dd41	0.40793803
5	0x3efdcc6c	0.49570024
6	0x3ec372f1	0.3817363
7	0x3eff3cd2	0.4985109
8	0x3eeabe85	0.4584848
9	0x3ebb0a95	0.3653151
10	0x3e3cd42d	0.18440314
11	0x3ede05aa	0.43363696
12	0x3f4a00fa	0.7890774
13	0x3f4a8b14	0.79118466
14	0x3e7aa7e3	0.24478106
15	0x3f23b994	0.63955045
16	0x3f291ec0	0.66062546
17	0x3ed8b4eb	0.4232553
18	0x3eac9999	0.33710936
19	0x3f8a7f05	1.0820013
20	0x3e892fd4	0.26794302
21	0x3f49546c	0.7864444
22	0x3eb31bff	0.34982297
23	0x3eaf1e22	0.34202677

backbone.1.conv.weight f4 [64, 24, 3, 3]
0	0x3d24ff08	0.04028228
1	0xbd5eab78	-0.054362744
2	0x3c045960	0.008077949
3	0xbc8236ca	-0.015895266
4	0x3b5d93a5	0.0033809927
5	0x3d046d7d	0.03233098
6	0x3bb09faa	0.005390127
7	0xbd0b4cf3	-0.03400893
8	0x3aa68a92	0.0012706092
9	0x3b570933	0.003281188
10	0x3deee750	0.11665213
11	0x3ae7a85f	0.001767408
12	0x3ca8c30f	0.020600824
13	0x3d862fab	0.06552061
14	0x3bf16734	0.007367039
15	0x3c8aeeb8	0.016959533
16	0x3d7a5c06	0.061122917
17	0xbcd7dc22	-0.026350085
18	0x3c917063	0.017753785
19	0xbcc44c7c	-0.023962252
20	0xbd483968	-0.048882872
21	0x3de839e6	0.11339168
22	0x3d415308	0.047198325
23	0xbd539a9e	-0.051661126
24	0xbc86dddb	-0.01646321
25	0xbcac78d5	-0.021053711
26	0x3d0dab11	0.03458697
27	0x3b8150cd	0.0039464
28	0x3d21e651	0.039526287
29	0x3c428b51	0.011874036
30	0xbd2a3305	-0.041552562
31	0x3db51c7e	0.08843325
32	0x3d67e48d	0.056614447
33	0x3d6632a5	0.056200642
34	0x3c18923d	0.00931221
35	0x3d7f51f4	0.062334016
36	0x3d357550	0.04430133
37	0x3cdfd168	0.027321532
38	0x3d68bce6	0.056820773
39	0x3d2dcb4d	0.04243021
40	0xbd6f31f7	-0.05839726
41	0xbcd2d685	-0.025737057
42	0x3d20bb29	0.03924099
43	0x3c9888a0	0.018619835
44	0xbd26a71a	-0.040686704
45	0x3d9d91b4	0.07693806
46	0xbd74eea7	-0.05979791
47	0xbc7da513	-0.015481251
48	0x3bb3580e	0.0054731434
49	0xbb2b17b3	-0.0026106655
50	0x3d8d4e99	0.06899757
51	0x3e564d34	0.20927888
52	0x3c2c94d0	0.010533527
53	0xbcb85b7f	-0.022504566
54	0xbd54c295	-0.05194338
55	0xbccb8bef	-0.024846999
56	0x3d9c6cfe	0.07637976
57	0x3d4ba0e3	0.04971398
58	0xbd08a90c	-0.03336434
59	0xbc87dbce	-0.016584303
60	0x3c9e94c6	0.01935805
61	0x3cbf5410	0.023355514
62	0x3b413a15	0.0029484082
63	0xbd104e32	-0.035230823
64	0xbd0c76cb	-0.034292977
65	0xbc8fd2db	-0.017556598
66	0xbda52e9e	-0.08065532
67	0x3d7c946c	0.061664984
68	0xbd83222d	-0.06403003
69	0x3d330f9e	0.043716066
70	0xbcaf1173	-0.021370625
71	0xbc8b05f2	-0.016970608
72	0xbd25e8af	-0.040505107
73	0x3cbb740e	0.022882488
74	0xbd82998b	-0.06376942
75	0x3d5cc478	0.053898305
76	0x3d2abd10	0.04168421
77	0x3d3e38b4	0.046440795
78	0x3d8e131d	0.06937239
79	0xbcfeaf2b	-0.031089386
80	0xbd900b50	-0.07033408
81	0x3db2b5e8	0.08726102
82	0xbdb955a0	-0.09049535
83	0x3d6ce1a8	0.05783239
84	0x3b8a1055	0.0042133727
85	0xbb7b04f4	-0.0038302513
86	0xbc72c5ad	-0.014817637
87	0x3d35fe8d	0.04443221
88	0xbde5ed6f	-0.112269275
89	0x3d6c301c	0.05766307
90	0x3c8defbd	0.01732623
91	0xbcb6beae	-0.02230772
92	0x3e023dbb	0.12718861
93	0x3d0abd6c	0.033872053
94	0x3d6b54e1	0.057453994
95	0x3bb4dea3	0.0055197044
96	0xbcc2e010	-0.023788482
97	0x3da59943	0.08085873
98	0xbd9d699f	-0.07686161
99	0x3c7166a2	0.014733942
100	0xbd91e004	-0.07122806
101	0xbc6803d4	-0.014161069
102	0xbbe74143	-0.0070573404
103	0x3d28522d	0.041093994
104	0x3b51e3cd	0.003202665
105	0xbd238435	-0.039921004
106	0x3dabe6dd	0.08393643
107	0x3dcf1f20	0.101133585
108	0xbc96eb85	-0.018422851
109	0xbd8f48b2	-0.069962874
110	0xbca55c44	-0.020185597
111	0x3ca16d32	0.019705389
112	0x3c3e49b8	0.011614256
113	0xbd9aac34	-0.075523764
114	0xbd00bb01	-0.03142834
115	0x3d9759e1	0.0739019
116	0x3c262661	0.010140986
117	0xbca8af2c	-0.020591341
118	0xbcbaa22b	-0.022782406
119	0xbda77a06	-0.08177571
120	0xbcfa9cde	-0.030592378
121	0xbd199b70	-0.037501752
122	0x3c1db79e	0.009626297
123	0x3c64a023	0.013954195
124	0xbc86f190	-0.016472608
125	0xbda714b9	-0.081582494
126	0x3d964cf9	0.073389
127	0x3d9b285a	0.07576056
128	0x3d74529f	0.059649106
129	0xbb987c16	-0.004653464
130	0x3db3fc9e	0.08788417
131	0x3d6f5618	0.058431715
132	0x3d14539a	0.03621254
133	0xbdac973d	-0.08427284
134	0x3dbd33ec	0.09238419
135	0xbd310641	-0.043218855
136	0x3ab079e9	0.0013464066
137	0xbd151eb0	-0.03640622
138	0xbd22e1c3	-0.039766084
139	0x3d1f8af7	0.038950887
140	0xbbaca3da	-0.005268556
141	0xbca57440	-0.020197034
142	0xbbcdef8c	-0.0062846597
143	0xbd86d1a8	-0.065829575
144	0x3c9854d6	0.01859514
145	0xbd181769	-0.0371317
146	0x3c892f6c	0.016746245
147	0x3caad676	0.020854216
148	0xbd40b025	-0.047042985
149	0xbcaccad3	-0.021092808
150	0x3bd5886c	0.006516507
151	0xbcd7446b	-0.026277741
152	0xbd1b0c9e	-0.03785383
153	0xbca3c540	-0.019991517
154	0x3d927333	0.07150879
155	0xbc42aac0	-0.01188153
156	0xbd2ad917	-0.04171094
157	0x3d4a1dc8	0.049344808
158	0xbd0bb71d	-0.034110177
159	0xbd01ca53	-0.031687092
160	0x3d15044b	0.036381047
161	0xbdc45a8f	-0.09587585
162	0xbc9a7fbf	-0.018859742
163	0x3d6cedb0	0.057843864
164	0xbda4cfc9	-0.080474444
165	0x3e0b3f77	0.13598429
166	0xbd0f3c47	-0.034969594
167	0x3c8fd246	0.01755632
168	0x3dee55bc	0.11637446
169	0x3ab5ea4a	0.0013879028
170	0xbd548562	-0.051885016
171	0xbd072303	-0.032992374
172	0xbd8e3ae9	-0.0694483
173	0xbdef7049	-0.116913386
174	0xbd150f35	-0.036391456
175	0xbca64fa2	-0.020301644
176	0xbd444460	-0.04791677
177	0x3b9b093c	0.0047313254
178	0xbdb69e19	-0.089168735
179	0x3d0bf780	0.03417158
180	0x3cffba10	0.031216651
181	0x3e01abd3	0.12663202
182	0x3dc7e8c5	0.09761194
183	0xbd1f1e06	-0.038846992
184	0x3cb2b0d8	0.021812841
185	0xbc170893	-0.009218353
186	0x3d2cc49c	0.04217969
187	0x3d948e4f	0.07253706
188	0x3d201728	0.039084584
189	0x3d951cc5	0.07280878
190	0xbd3fad43	-0.046796095
191	0xbd416c0f	-0.047222193
192	0x3d127c44	0.03576304
193	0x3d160e25	0.036634583
194	0x3d9ece52	0.07754196
195	0xbd77e857	-0.06052431
196	0xbd5b2e28	-0.053510815
197	0xbd3e1eff	-0.04641628
198	0xbd83fbf3	-0.0644454
199	0xbbb5facd	-0.0055535794
200	0x3d4613fc	0.048358902
201	0x3c774b85	0.015093689
202	0xbd13aee6	-0.036055468
203	0xbdfabc29	-0.1224292
204	0x3cb54d9d	0.022131735
205	0x3ca19602	0.01972485
206	0x3d73a6ed	0.059485365
207	0xbd01753b	-0.03160594
208	0xbca68854	-0.020328678
209	0x3ced8b43	0.02899707
210	0x3db2bff9	0.08728022
211	0x3c2b0880	0.010439038
212	0xbd5a9740	-0.0533669
213	0x3cf33cc6	0.029692065
214	0x3da4b25b	0.08041831
215	0x3b781fd0	0.0037860759
216	0x3c63cc90	0.013903752
217	0x3cddff04	0.02709914
218	0x3d12dcab	0.035854977
219	0x3d26d51f	0.040730592
220	0xbcbb7c3a	-0.022886384
221	0x3c46243e	0.012093602
222	0xbd6b6b73	-0.05747552
223	0x3d8a8686	0.067639396
224	0xbcf97f08	-0.030456081
225	0x3d0990bd	0.0335853
226	0xbcaf77e1	-0.021419467
227	0xbcf042ca	-0.029328723
228	0xbca22784	-0.019794233
229	0xbd26bcfc	-0.040707573
230	0xbc25688c	-0.010095727
231	0x3bf27d43	0.0074001863
232	0x3d49157a	0.049092747
233	0x3d8ad538	0.067789495
234	0x3d981518	0.07425898
235	0xbd751c2a	-0.059841312
236	0xbd3196ed	-0.043356825
237	0x3cbc2428	0.02296646
238	0xbc58b762	-0.013227316
239	0x3d858dab	0.06521162
240	0x3c2b4808	0.010454185
241	0x3dacd27f	0.084385864
242	0x3bd45365	0.006479668
243	0xbc6d77ca	-0.014493892
244	0xbcd2c161	-0.025726976
245	0xbd33860b	-0.043829005
246	0xbd7bb756	-0.06145414
247	0x3d9612e1	0.073278196
248	0x3ddd9ba1	0.108206995
249	0x3b98cd64	0.0046631563
250	0x3d2c0567	0.04199734
251	0x3c6e9fef	0.014564498
252	0xbd9a3de4	-0.07531336
253	0x3d384e89	0.044996772
254	0x3e06c9d4	0.13162929
255	0x3d848286	0.06470208

backbone.1.conv.bias f4 [64]
0	0xbbba3ebe	-0.005683749
1	0xbca8db9f	-0.020612536
2	0x3d48c4b7	0.049015727
3	0xbd188711	-0.037238184
4	0xbd2ed4c3	-0.042683374
5	0xbd2c3c80	-0.042049885
6	0xbd27a324	-0.040927067
7	0x3d0d0777	0.034430947
8	0x3d5d71a6	0.05406346
9	0x3c66af05	0.014079814
10	0xbd19312a	-0.037400402
11	0x3d2703cf	0.040775117
12	0xbcfe20a7	-0.03102143
13	0x3d0d4c23	0.034496438
14	0xbc8964dc	-0.016771726
15	0x3d34f6a0	0.044180512
16	0x3d4d0ae3	0.05005921
17	0xbccb20f4	-0.024795987
18	0xbbf96425	-0.007610815
19	0x3d4260f4	0.047455743
20	0x3c0f8aff	0.008761167
21	0xbc10d8da	-0.008840764
22	0xbd5e9586	-0.054341815
23	0xbd6b0925	-0.057381768
24	0x3d3b8c27	0.045787957
25	0x3d2c33ea	0.042041697
26	0xbd18ce8e	-0.03730636
27	0xbd56a883	-0.0524068
28	0x3d1be6db	0.038061958
29	0x3c375e00	0.011191845
30	0x3c78e311	0.015190856
31	0xbd1724d3	-0.036900353
32	0xbcd5f878	-0.026119456
33	0x3d17bae8	0.037043482
34	0xbd4a557e	-0.049397938
35	0xbbac7d73	-0.005263978
36	0xbceb0947	-0.028690947
37	0x3ba56ff1	0.005048745
38	0xbcbf92c8	-0.02338542
39	0x3d589613	0.052877497
40	0x3d4d861c	0.050176725
41	0x3cdadc9f	0.026716528
42	0xbd26dcc9	-0.0407379
43	0xbc67fac5	-0.014158909
44	0x3d810b9e	0.06301044
45	0x3d69378b	0.056937736
46	0xbc7a4020	-0.015274078
47	0xbcbfe365	-0.02342386
48	0xbd69b7d3	-0.057060074
49	0x3d881d8b	0.0664626
50	0xbc35869c	-0.011079457
51	0x3d4e1162	0.050309546
52	0x3d0acce6	0.033886813
53	0xbcf54ffa	-0.029945362
54	0x3d82e166	0.063906476
55	0x3c8a2ec0	0.016867995
56	0xbd67da25	-0.056604523
57	0x3b67ed73	0.0035389333
58	0x3d6e8827	0.058235314
59	0xbc2d55cd	-0.0105795385
60	0x3d65ce2e	0.05610483
61	0x3d440b82	0.047862537
62	0xbcc45db6	-0.023970466
63	0xbd2201bf	-0.039552446

backbone.1.bn2.weight f4 [32]
0	0x3f800f8e	1.0004747
1	0x3f7fa22b	0.99856824
2	0x3f804809	1.0021983
3	0x3f7ebf89	0.9951101
4	0x3f7f0a48	0.9962506
5	0x3f811056	1.008311
6	0x3f801848	1.000741
7	0x3f801fcf	1.0009707
8	0x3f8016d0	1.0006962
9	0x3f7ed34a	0.9954115
10	0x3f80cb20	1.0061989
11	0x3f80807b	1.0039209
12	0x3f803cab	1.0018514
13	0x3f802e2c	1.001409
14	0x3f804533	1.0021118
15	0x3f7fb2a1	0.9988194
16	0x3f7fa68a	0.99863493
17	0x3f7e52bf	0.9934501
18	0x3f7f480d	0.99719316
19	0x3f7e4659	0.9932609
20	0x3f814d04	1.0101628
21	0x3f7f93e0	0.99835014
22	0x3f8022bb	1.0010599
23	0x3f7ea409	0.9946905
24	0x3f811b26	1.008641
25	0x3f808b95	1.0042597
26	0x3f7f9cca	0.99848616
27	0x3f7dc28b	0.99124974
28	0x3f8063e8	1.0030489
29	0x3f803c6d	1.001844
30	0x3f806eac	1.0033774
31	0x3f7e8634	0.9942353

backbone.1.bn2.bias f4 [32]
0	0xbb08a0bf	-0.0020847765
1	0xba843bf8	-0.0010088673
2	0xba3154d2	-0.00067646534
3	0x3b073a4f	0.002063412
4	0x3a0acd5f	0.0005294885
5	0x3874d371	5.8371053e-05
6	0xbb1f7896	-0.002433335
7	0xbb284af7	-0.0025679448
8	0x3b2f066b	0.0026706706
9	0xbb317a5e	-0.0027080993
10	0xbb42b3d3	-0.0029709234
11	0x3af980c7	0.0019035571
12	0xbb2cffa6	-0.0026397496
13	0xbb7183a3	-0.0036852143
14	0x3a25230d	0.00062994735
15	0xbb4b3059	-0.003100416
16	0xb992fb64	-0.0002803459
17	0x3a316d68	0.0006768317
18	0x39df338b	0.00042572277
19	0xbb0ccd3e	-0.0021484639
20	0x3b64e95f	0.003492914
21	0xbac8e4f9	-0.0015327028
22	0x39075b82	0.00012908693
23	0xb948a483	-0.00019134772
24	0xb975cd11	-0.00023441414
25	0x3b2c2545	0.0026267332
26	0xba6e35e9	-0.0009087013
27	0x3b10f7d9	0.0022120385
28	0xba8c100e	-0.0010685937
29	0x3ba5bb1d	0.005057706
30	0xbaeddd23	-0.0018147569
31	0xbae88a67	-0.0017741442

backbone.1.bn2.running_mean f4 [32]
0	0x3f471671	0.7776862
1	0x3f4a271e	0.7896594
2	0x3f546f5c	0.8298242
3	0x3f37b5b5	0.7176164
4	0x3f4680e9	0.7754045
5	0x3f29e9f1	0.6637259
6	0x3f479f53	0.77977484
7	0x3f78098b	0.9688956
8	0x3f95b76a	1.1696599
9	0x3f3c330d	0.735154
10	0x3f58421a	0.8447586
11	0x3f539092	0.8264247
12	0x3f44e92a	0.7691828
13	0x3f767779	0.9627605
14	0x3f651e17	0.8949904
15	0x3f4685ab	0.7754771
16	0x3f3b32bc	0.7312429
17	0x3f6725dc	0.90292144
18	0x3f50b474	0.8152535
19	0x3f740e0b	0.9533393
20	0x3f76a840	0.9635048
21	0x3f6996ff	0.91246027
22	0x3f386d27	0.72041553
23	0x3f4c09fe	0.79702747
24	0x3f6183fe	0.8809203
25	0x3f6770da	0.9040657
26	0x3f4ef17b	0.8083722
27	0x3f36eaee	0.71452224
28	0x3f5d52d3	0.86454505
29	0x3f62aa65	0.8854125
30	0x3f537c07	0.82611126
31	0x3f47715a	0.77907336
